{"class_name": "Model", "keras_version": "2.2.0", "config": {"layers": [{"class_name": "InputLayer", "config": {"dtype": "float32", "batch_input_shape": [null, 3, 96, 96], "name": "input_1", "sparse": false}, "inbound_nodes": [], "name": "input_1"}, {"class_name": "ZeroPadding2D", "config": {"padding": [[3, 3], [3, 3]], "trainable": true, "name": "zero_padding2d_1", "data_format": "channels_first"}, "inbound_nodes": [[["input_1", 0, 0, {}]]], "name": "zero_padding2d_1"}, {"class_name": "Conv2D", "config": {"kernel_constraint": null, "kernel_initializer": {"class_name": "VarianceScaling", "config": {"distribution": "uniform", "scale": 1.0, "seed": null, "mode": "fan_avg"}}, "name": "conv1", "bias_regularizer": null, "bias_constraint": null, "activation": "linear", "trainable": true, "data_format": "channels_first", "padding": "valid", "strides": [2, 2], "dilation_rate": [1, 1], "kernel_regularizer": null, "filters": 64, "bias_initializer": {"class_name": "Zeros", "config": {}}, "use_bias": true, "activity_regularizer": null, "kernel_size": [7, 7]}, "inbound_nodes": [[["zero_padding2d_1", 0, 0, {}]]], "name": "conv1"}, {"class_name": "BatchNormalization", "config": {"beta_constraint": null, "gamma_initializer": {"class_name": "Ones", "config": {}}, "moving_mean_initializer": {"class_name": "Zeros", "config": {}}, "name": "bn1", "epsilon": 0.001, "trainable": true, "moving_variance_initializer": {"class_name": "Ones", "config": {}}, "beta_initializer": {"class_name": "Zeros", "config": {}}, "scale": true, "axis": 1, "gamma_constraint": null, "gamma_regularizer": null, "beta_regularizer": null, "momentum": 0.99, "center": true}, "inbound_nodes": [[["conv1", 0, 0, {}]]], "name": "bn1"}, {"class_name": "Activation", "config": {"activation": "relu", "trainable": true, "name": "activation_1"}, "inbound_nodes": [[["bn1", 0, 0, {}]]], "name": "activation_1"}, {"class_name": "ZeroPadding2D", "config": {"padding": [[1, 1], [1, 1]], "trainable": true, "name": "zero_padding2d_2", "data_format": "channels_first"}, "inbound_nodes": [[["activation_1", 0, 0, {}]]], "name": "zero_padding2d_2"}, {"class_name": "MaxPooling2D", "config": {"name": "max_pooling2d_1", "trainable": true, "data_format": "channels_first", "pool_size": [3, 3], "padding": "valid", "strides": [2, 2]}, "inbound_nodes": [[["zero_padding2d_2", 0, 0, {}]]], "name": "max_pooling2d_1"}, {"class_name": "Conv2D", "config": {"kernel_constraint": null, "kernel_initializer": {"class_name": "VarianceScaling", "config": {"distribution": "uniform", "scale": 1.0, "seed": null, "mode": "fan_avg"}}, "name": "conv2", "bias_regularizer": null, "bias_constraint": null, "activation": "linear", "trainable": true, "data_format": "channels_first", "padding": "valid", "strides": [1, 1], "dilation_rate": [1, 1], "kernel_regularizer": null, "filters": 64, "bias_initializer": {"class_name": "Zeros", "config": {}}, "use_bias": true, "activity_regularizer": null, "kernel_size": [1, 1]}, "inbound_nodes": [[["max_pooling2d_1", 0, 0, {}]]], "name": "conv2"}, {"class_name": "BatchNormalization", "config": {"beta_constraint": null, "gamma_initializer": {"class_name": "Ones", "config": {}}, "moving_mean_initializer": {"class_name": "Zeros", "config": {}}, "name": "bn2", "epsilon": 1e-05, "trainable": true, "moving_variance_initializer": {"class_name": "Ones", "config": {}}, "beta_initializer": {"class_name": "Zeros", "config": {}}, "scale": true, "axis": 1, "gamma_constraint": null, "gamma_regularizer": null, "beta_regularizer": null, "momentum": 0.99, "center": true}, "inbound_nodes": [[["conv2", 0, 0, {}]]], "name": "bn2"}, {"class_name": "Activation", "config": {"activation": "relu", "trainable": true, "name": "activation_2"}, "inbound_nodes": [[["bn2", 0, 0, {}]]], "name": "activation_2"}, {"class_name": "ZeroPadding2D", "config": {"padding": [[1, 1], [1, 1]], "trainable": true, "name": "zero_padding2d_3", "data_format": "channels_first"}, "inbound_nodes": [[["activation_2", 0, 0, {}]]], "name": "zero_padding2d_3"}, {"class_name": "Conv2D", "config": {"kernel_constraint": null, "kernel_initializer": {"class_name": "VarianceScaling", "config": {"distribution": "uniform", "scale": 1.0, "seed": null, "mode": "fan_avg"}}, "name": "conv3", "bias_regularizer": null, "bias_constraint": null, "activation": "linear", "trainable": true, "data_format": "channels_first", "padding": "valid", "strides": [1, 1], "dilation_rate": [1, 1], "kernel_regularizer": null, "filters": 192, "bias_initializer": {"class_name": "Zeros", "config": {}}, "use_bias": true, "activity_regularizer": null, "kernel_size": [3, 3]}, "inbound_nodes": [[["zero_padding2d_3", 0, 0, {}]]], "name": "conv3"}, {"class_name": "BatchNormalization", "config": {"beta_constraint": null, "gamma_initializer": {"class_name": "Ones", "config": {}}, "moving_mean_initializer": {"class_name": "Zeros", "config": {}}, "name": "bn3", "epsilon": 1e-05, "trainable": true, "moving_variance_initializer": {"class_name": "Ones", "config": {}}, "beta_initializer": {"class_name": "Zeros", "config": {}}, "scale": true, "axis": 1, "gamma_constraint": null, "gamma_regularizer": null, "beta_regularizer": null, "momentum": 0.99, "center": true}, "inbound_nodes": [[["conv3", 0, 0, {}]]], "name": "bn3"}, {"class_name": "Activation", "config": {"activation": "relu", "trainable": true, "name": "activation_3"}, "inbound_nodes": [[["bn3", 0, 0, {}]]], "name": "activation_3"}, {"class_name": "ZeroPadding2D", "config": {"padding": [[1, 1], [1, 1]], "trainable": true, "name": "zero_padding2d_4", "data_format": "channels_first"}, "inbound_nodes": [[["activation_3", 0, 0, {}]]], "name": "zero_padding2d_4"}, {"class_name": "MaxPooling2D", "config": {"name": "max_pooling2d_2", "trainable": true, "data_format": "channels_first", "pool_size": [3, 3], "padding": "valid", "strides": [2, 2]}, "inbound_nodes": [[["zero_padding2d_4", 0, 0, {}]]], "name": "max_pooling2d_2"}, {"class_name": "Conv2D", "config": {"kernel_constraint": null, "kernel_initializer": {"class_name": "VarianceScaling", "config": {"distribution": "uniform", "scale": 1.0, "seed": null, "mode": "fan_avg"}}, "name": "inception_3a_3x3_conv1", "bias_regularizer": null, "bias_constraint": null, "activation": "linear", "trainable": true, "data_format": "channels_first", "padding": "valid", "strides": [1, 1], "dilation_rate": [1, 1], "kernel_regularizer": null, "filters": 96, "bias_initializer": {"class_name": "Zeros", "config": {}}, "use_bias": true, "activity_regularizer": null, "kernel_size": [1, 1]}, "inbound_nodes": [[["max_pooling2d_2", 0, 0, {}]]], "name": "inception_3a_3x3_conv1"}, {"class_name": "Conv2D", "config": {"kernel_constraint": null, "kernel_initializer": {"class_name": "VarianceScaling", "config": {"distribution": "uniform", "scale": 1.0, "seed": null, "mode": "fan_avg"}}, "name": "inception_3a_5x5_conv1", "bias_regularizer": null, "bias_constraint": null, "activation": "linear", "trainable": true, "data_format": "channels_first", "padding": "valid", "strides": [1, 1], "dilation_rate": [1, 1], "kernel_regularizer": null, "filters": 16, "bias_initializer": {"class_name": "Zeros", "config": {}}, "use_bias": true, "activity_regularizer": null, "kernel_size": [1, 1]}, "inbound_nodes": [[["max_pooling2d_2", 0, 0, {}]]], "name": "inception_3a_5x5_conv1"}, {"class_name": "BatchNormalization", "config": {"beta_constraint": null, "gamma_initializer": {"class_name": "Ones", "config": {}}, "moving_mean_initializer": {"class_name": "Zeros", "config": {}}, "name": "inception_3a_3x3_bn1", "epsilon": 1e-05, "trainable": true, "moving_variance_initializer": {"class_name": "Ones", "config": {}}, "beta_initializer": {"class_name": "Zeros", "config": {}}, "scale": true, "axis": 1, "gamma_constraint": null, "gamma_regularizer": null, "beta_regularizer": null, "momentum": 0.99, "center": true}, "inbound_nodes": [[["inception_3a_3x3_conv1", 0, 0, {}]]], "name": "inception_3a_3x3_bn1"}, {"class_name": "BatchNormalization", "config": {"beta_constraint": null, "gamma_initializer": {"class_name": "Ones", "config": {}}, "moving_mean_initializer": {"class_name": "Zeros", "config": {}}, "name": "inception_3a_5x5_bn1", "epsilon": 1e-05, "trainable": true, "moving_variance_initializer": {"class_name": "Ones", "config": {}}, "beta_initializer": {"class_name": "Zeros", "config": {}}, "scale": true, "axis": 1, "gamma_constraint": null, "gamma_regularizer": null, "beta_regularizer": null, "momentum": 0.99, "center": true}, "inbound_nodes": [[["inception_3a_5x5_conv1", 0, 0, {}]]], "name": "inception_3a_5x5_bn1"}, {"class_name": "Activation", "config": {"activation": "relu", "trainable": true, "name": "activation_4"}, "inbound_nodes": [[["inception_3a_3x3_bn1", 0, 0, {}]]], "name": "activation_4"}, {"class_name": "Activation", "config": {"activation": "relu", "trainable": true, "name": "activation_6"}, "inbound_nodes": [[["inception_3a_5x5_bn1", 0, 0, {}]]], "name": "activation_6"}, {"class_name": "MaxPooling2D", "config": {"name": "max_pooling2d_3", "trainable": true, "data_format": "channels_first", "pool_size": [3, 3], "padding": "valid", "strides": [2, 2]}, "inbound_nodes": [[["max_pooling2d_2", 0, 0, {}]]], "name": "max_pooling2d_3"}, {"class_name": "ZeroPadding2D", "config": {"padding": [[1, 1], [1, 1]], "trainable": true, "name": "zero_padding2d_5", "data_format": "channels_first"}, "inbound_nodes": [[["activation_4", 0, 0, {}]]], "name": "zero_padding2d_5"}, {"class_name": "ZeroPadding2D", "config": {"padding": [[2, 2], [2, 2]], "trainable": true, "name": "zero_padding2d_6", "data_format": "channels_first"}, "inbound_nodes": [[["activation_6", 0, 0, {}]]], "name": "zero_padding2d_6"}, {"class_name": "Conv2D", "config": {"kernel_constraint": null, "kernel_initializer": {"class_name": "VarianceScaling", "config": {"distribution": "uniform", "scale": 1.0, "seed": null, "mode": "fan_avg"}}, "name": "inception_3a_pool_conv", "bias_regularizer": null, "bias_constraint": null, "activation": "linear", "trainable": true, "data_format": "channels_first", "padding": "valid", "strides": [1, 1], "dilation_rate": [1, 1], "kernel_regularizer": null, "filters": 32, "bias_initializer": {"class_name": "Zeros", "config": {}}, "use_bias": true, "activity_regularizer": null, "kernel_size": [1, 1]}, "inbound_nodes": [[["max_pooling2d_3", 0, 0, {}]]], "name": "inception_3a_pool_conv"}, {"class_name": "Conv2D", "config": {"kernel_constraint": null, "kernel_initializer": {"class_name": "VarianceScaling", "config": {"distribution": "uniform", "scale": 1.0, "seed": null, "mode": "fan_avg"}}, "name": "inception_3a_3x3_conv2", "bias_regularizer": null, "bias_constraint": null, "activation": "linear", "trainable": true, "data_format": "channels_first", "padding": "valid", "strides": [1, 1], "dilation_rate": [1, 1], "kernel_regularizer": null, "filters": 128, "bias_initializer": {"class_name": "Zeros", "config": {}}, "use_bias": true, "activity_regularizer": null, "kernel_size": [3, 3]}, "inbound_nodes": [[["zero_padding2d_5", 0, 0, {}]]], "name": "inception_3a_3x3_conv2"}, {"class_name": "Conv2D", "config": {"kernel_constraint": null, "kernel_initializer": {"class_name": "VarianceScaling", "config": {"distribution": "uniform", "scale": 1.0, "seed": null, "mode": "fan_avg"}}, "name": "inception_3a_5x5_conv2", "bias_regularizer": null, "bias_constraint": null, "activation": "linear", "trainable": true, "data_format": "channels_first", "padding": "valid", "strides": [1, 1], "dilation_rate": [1, 1], "kernel_regularizer": null, "filters": 32, "bias_initializer": {"class_name": "Zeros", "config": {}}, "use_bias": true, "activity_regularizer": null, "kernel_size": [5, 5]}, "inbound_nodes": [[["zero_padding2d_6", 0, 0, {}]]], "name": "inception_3a_5x5_conv2"}, {"class_name": "BatchNormalization", "config": {"beta_constraint": null, "gamma_initializer": {"class_name": "Ones", "config": {}}, "moving_mean_initializer": {"class_name": "Zeros", "config": {}}, "name": "inception_3a_pool_bn", "epsilon": 1e-05, "trainable": true, "moving_variance_initializer": {"class_name": "Ones", "config": {}}, "beta_initializer": {"class_name": "Zeros", "config": {}}, "scale": true, "axis": 1, "gamma_constraint": null, "gamma_regularizer": null, "beta_regularizer": null, "momentum": 0.99, "center": true}, "inbound_nodes": [[["inception_3a_pool_conv", 0, 0, {}]]], "name": "inception_3a_pool_bn"}, {"class_name": "Conv2D", "config": {"kernel_constraint": null, "kernel_initializer": {"class_name": "VarianceScaling", "config": {"distribution": "uniform", "scale": 1.0, "seed": null, "mode": "fan_avg"}}, "name": "inception_3a_1x1_conv", "bias_regularizer": null, "bias_constraint": null, "activation": "linear", "trainable": true, "data_format": "channels_first", "padding": "valid", "strides": [1, 1], "dilation_rate": [1, 1], "kernel_regularizer": null, "filters": 64, "bias_initializer": {"class_name": "Zeros", "config": {}}, "use_bias": true, "activity_regularizer": null, "kernel_size": [1, 1]}, "inbound_nodes": [[["max_pooling2d_2", 0, 0, {}]]], "name": "inception_3a_1x1_conv"}, {"class_name": "BatchNormalization", "config": {"beta_constraint": null, "gamma_initializer": {"class_name": "Ones", "config": {}}, "moving_mean_initializer": {"class_name": "Zeros", "config": {}}, "name": "inception_3a_3x3_bn2", "epsilon": 1e-05, "trainable": true, "moving_variance_initializer": {"class_name": "Ones", "config": {}}, "beta_initializer": {"class_name": "Zeros", "config": {}}, "scale": true, "axis": 1, "gamma_constraint": null, "gamma_regularizer": null, "beta_regularizer": null, "momentum": 0.99, "center": true}, "inbound_nodes": [[["inception_3a_3x3_conv2", 0, 0, {}]]], "name": "inception_3a_3x3_bn2"}, {"class_name": "BatchNormalization", "config": {"beta_constraint": null, "gamma_initializer": {"class_name": "Ones", "config": {}}, "moving_mean_initializer": {"class_name": "Zeros", "config": {}}, "name": "inception_3a_5x5_bn2", "epsilon": 1e-05, "trainable": true, "moving_variance_initializer": {"class_name": "Ones", "config": {}}, "beta_initializer": {"class_name": "Zeros", "config": {}}, "scale": true, "axis": 1, "gamma_constraint": null, "gamma_regularizer": null, "beta_regularizer": null, "momentum": 0.99, "center": true}, "inbound_nodes": [[["inception_3a_5x5_conv2", 0, 0, {}]]], "name": "inception_3a_5x5_bn2"}, {"class_name": "Activation", "config": {"activation": "relu", "trainable": true, "name": "activation_8"}, "inbound_nodes": [[["inception_3a_pool_bn", 0, 0, {}]]], "name": "activation_8"}, {"class_name": "BatchNormalization", "config": {"beta_constraint": null, "gamma_initializer": {"class_name": "Ones", "config": {}}, "moving_mean_initializer": {"class_name": "Zeros", "config": {}}, "name": "inception_3a_1x1_bn", "epsilon": 1e-05, "trainable": true, "moving_variance_initializer": {"class_name": "Ones", "config": {}}, "beta_initializer": {"class_name": "Zeros", "config": {}}, "scale": true, "axis": 1, "gamma_constraint": null, "gamma_regularizer": null, "beta_regularizer": null, "momentum": 0.99, "center": true}, "inbound_nodes": [[["inception_3a_1x1_conv", 0, 0, {}]]], "name": "inception_3a_1x1_bn"}, {"class_name": "Activation", "config": {"activation": "relu", "trainable": true, "name": "activation_5"}, "inbound_nodes": [[["inception_3a_3x3_bn2", 0, 0, {}]]], "name": "activation_5"}, {"class_name": "Activation", "config": {"activation": "relu", "trainable": true, "name": "activation_7"}, "inbound_nodes": [[["inception_3a_5x5_bn2", 0, 0, {}]]], "name": "activation_7"}, {"class_name": "ZeroPadding2D", "config": {"padding": [[3, 4], [3, 4]], "trainable": true, "name": "zero_padding2d_7", "data_format": "channels_first"}, "inbound_nodes": [[["activation_8", 0, 0, {}]]], "name": "zero_padding2d_7"}, {"class_name": "Activation", "config": {"activation": "relu", "trainable": true, "name": "activation_9"}, "inbound_nodes": [[["inception_3a_1x1_bn", 0, 0, {}]]], "name": "activation_9"}, {"class_name": "Concatenate", "config": {"trainable": true, "name": "concatenate_1", "axis": 1}, "inbound_nodes": [[["activation_5", 0, 0, {}], ["activation_7", 0, 0, {}], ["zero_padding2d_7", 0, 0, {}], ["activation_9", 0, 0, {}]]], "name": "concatenate_1"}, {"class_name": "Conv2D", "config": {"kernel_constraint": null, "kernel_initializer": {"class_name": "VarianceScaling", "config": {"distribution": "uniform", "scale": 1.0, "seed": null, "mode": "fan_avg"}}, "name": "inception_3b_3x3_conv1", "bias_regularizer": null, "bias_constraint": null, "activation": "linear", "trainable": true, "data_format": "channels_first", "padding": "valid", "strides": [1, 1], "dilation_rate": [1, 1], "kernel_regularizer": null, "filters": 96, "bias_initializer": {"class_name": "Zeros", "config": {}}, "use_bias": true, "activity_regularizer": null, "kernel_size": [1, 1]}, "inbound_nodes": [[["concatenate_1", 0, 0, {}]]], "name": "inception_3b_3x3_conv1"}, {"class_name": "Conv2D", "config": {"kernel_constraint": null, "kernel_initializer": {"class_name": "VarianceScaling", "config": {"distribution": "uniform", "scale": 1.0, "seed": null, "mode": "fan_avg"}}, "name": "inception_3b_5x5_conv1", "bias_regularizer": null, "bias_constraint": null, "activation": "linear", "trainable": true, "data_format": "channels_first", "padding": "valid", "strides": [1, 1], "dilation_rate": [1, 1], "kernel_regularizer": null, "filters": 32, "bias_initializer": {"class_name": "Zeros", "config": {}}, "use_bias": true, "activity_regularizer": null, "kernel_size": [1, 1]}, "inbound_nodes": [[["concatenate_1", 0, 0, {}]]], "name": "inception_3b_5x5_conv1"}, {"class_name": "BatchNormalization", "config": {"beta_constraint": null, "gamma_initializer": {"class_name": "Ones", "config": {}}, "moving_mean_initializer": {"class_name": "Zeros", "config": {}}, "name": "inception_3b_3x3_bn1", "epsilon": 1e-05, "trainable": true, "moving_variance_initializer": {"class_name": "Ones", "config": {}}, "beta_initializer": {"class_name": "Zeros", "config": {}}, "scale": true, "axis": 1, "gamma_constraint": null, "gamma_regularizer": null, "beta_regularizer": null, "momentum": 0.99, "center": true}, "inbound_nodes": [[["inception_3b_3x3_conv1", 0, 0, {}]]], "name": "inception_3b_3x3_bn1"}, {"class_name": "BatchNormalization", "config": {"beta_constraint": null, "gamma_initializer": {"class_name": "Ones", "config": {}}, "moving_mean_initializer": {"class_name": "Zeros", "config": {}}, "name": "inception_3b_5x5_bn1", "epsilon": 1e-05, "trainable": true, "moving_variance_initializer": {"class_name": "Ones", "config": {}}, "beta_initializer": {"class_name": "Zeros", "config": {}}, "scale": true, "axis": 1, "gamma_constraint": null, "gamma_regularizer": null, "beta_regularizer": null, "momentum": 0.99, "center": true}, "inbound_nodes": [[["inception_3b_5x5_conv1", 0, 0, {}]]], "name": "inception_3b_5x5_bn1"}, {"class_name": "Activation", "config": {"activation": "relu", "trainable": true, "name": "activation_10"}, "inbound_nodes": [[["inception_3b_3x3_bn1", 0, 0, {}]]], "name": "activation_10"}, {"class_name": "Activation", "config": {"activation": "relu", "trainable": true, "name": "activation_12"}, "inbound_nodes": [[["inception_3b_5x5_bn1", 0, 0, {}]]], "name": "activation_12"}, {"class_name": "AveragePooling2D", "config": {"name": "average_pooling2d_1", "trainable": true, "data_format": "channels_first", "pool_size": [3, 3], "padding": "valid", "strides": [3, 3]}, "inbound_nodes": [[["concatenate_1", 0, 0, {}]]], "name": "average_pooling2d_1"}, {"class_name": "ZeroPadding2D", "config": {"padding": [[1, 1], [1, 1]], "trainable": true, "name": "zero_padding2d_8", "data_format": "channels_first"}, "inbound_nodes": [[["activation_10", 0, 0, {}]]], "name": "zero_padding2d_8"}, {"class_name": "ZeroPadding2D", "config": {"padding": [[2, 2], [2, 2]], "trainable": true, "name": "zero_padding2d_9", "data_format": "channels_first"}, "inbound_nodes": [[["activation_12", 0, 0, {}]]], "name": "zero_padding2d_9"}, {"class_name": "Conv2D", "config": {"kernel_constraint": null, "kernel_initializer": {"class_name": "VarianceScaling", "config": {"distribution": "uniform", "scale": 1.0, "seed": null, "mode": "fan_avg"}}, "name": "inception_3b_pool_conv", "bias_regularizer": null, "bias_constraint": null, "activation": "linear", "trainable": true, "data_format": "channels_first", "padding": "valid", "strides": [1, 1], "dilation_rate": [1, 1], "kernel_regularizer": null, "filters": 64, "bias_initializer": {"class_name": "Zeros", "config": {}}, "use_bias": true, "activity_regularizer": null, "kernel_size": [1, 1]}, "inbound_nodes": [[["average_pooling2d_1", 0, 0, {}]]], "name": "inception_3b_pool_conv"}, {"class_name": "Conv2D", "config": {"kernel_constraint": null, "kernel_initializer": {"class_name": "VarianceScaling", "config": {"distribution": "uniform", "scale": 1.0, "seed": null, "mode": "fan_avg"}}, "name": "inception_3b_3x3_conv2", "bias_regularizer": null, "bias_constraint": null, "activation": "linear", "trainable": true, "data_format": "channels_first", "padding": "valid", "strides": [1, 1], "dilation_rate": [1, 1], "kernel_regularizer": null, "filters": 128, "bias_initializer": {"class_name": "Zeros", "config": {}}, "use_bias": true, "activity_regularizer": null, "kernel_size": [3, 3]}, "inbound_nodes": [[["zero_padding2d_8", 0, 0, {}]]], "name": "inception_3b_3x3_conv2"}, {"class_name": "Conv2D", "config": {"kernel_constraint": null, "kernel_initializer": {"class_name": "VarianceScaling", "config": {"distribution": "uniform", "scale": 1.0, "seed": null, "mode": "fan_avg"}}, "name": "inception_3b_5x5_conv2", "bias_regularizer": null, "bias_constraint": null, "activation": "linear", "trainable": true, "data_format": "channels_first", "padding": "valid", "strides": [1, 1], "dilation_rate": [1, 1], "kernel_regularizer": null, "filters": 64, "bias_initializer": {"class_name": "Zeros", "config": {}}, "use_bias": true, "activity_regularizer": null, "kernel_size": [5, 5]}, "inbound_nodes": [[["zero_padding2d_9", 0, 0, {}]]], "name": "inception_3b_5x5_conv2"}, {"class_name": "BatchNormalization", "config": {"beta_constraint": null, "gamma_initializer": {"class_name": "Ones", "config": {}}, "moving_mean_initializer": {"class_name": "Zeros", "config": {}}, "name": "inception_3b_pool_bn", "epsilon": 1e-05, "trainable": true, "moving_variance_initializer": {"class_name": "Ones", "config": {}}, "beta_initializer": {"class_name": "Zeros", "config": {}}, "scale": true, "axis": 1, "gamma_constraint": null, "gamma_regularizer": null, "beta_regularizer": null, "momentum": 0.99, "center": true}, "inbound_nodes": [[["inception_3b_pool_conv", 0, 0, {}]]], "name": "inception_3b_pool_bn"}, {"class_name": "Conv2D", "config": {"kernel_constraint": null, "kernel_initializer": {"class_name": "VarianceScaling", "config": {"distribution": "uniform", "scale": 1.0, "seed": null, "mode": "fan_avg"}}, "name": "inception_3b_1x1_conv", "bias_regularizer": null, "bias_constraint": null, "activation": "linear", "trainable": true, "data_format": "channels_first", "padding": "valid", "strides": [1, 1], "dilation_rate": [1, 1], "kernel_regularizer": null, "filters": 64, "bias_initializer": {"class_name": "Zeros", "config": {}}, "use_bias": true, "activity_regularizer": null, "kernel_size": [1, 1]}, "inbound_nodes": [[["concatenate_1", 0, 0, {}]]], "name": "inception_3b_1x1_conv"}, {"class_name": "BatchNormalization", "config": {"beta_constraint": null, "gamma_initializer": {"class_name": "Ones", "config": {}}, "moving_mean_initializer": {"class_name": "Zeros", "config": {}}, "name": "inception_3b_3x3_bn2", "epsilon": 1e-05, "trainable": true, "moving_variance_initializer": {"class_name": "Ones", "config": {}}, "beta_initializer": {"class_name": "Zeros", "config": {}}, "scale": true, "axis": 1, "gamma_constraint": null, "gamma_regularizer": null, "beta_regularizer": null, "momentum": 0.99, "center": true}, "inbound_nodes": [[["inception_3b_3x3_conv2", 0, 0, {}]]], "name": "inception_3b_3x3_bn2"}, {"class_name": "BatchNormalization", "config": {"beta_constraint": null, "gamma_initializer": {"class_name": "Ones", "config": {}}, "moving_mean_initializer": {"class_name": "Zeros", "config": {}}, "name": "inception_3b_5x5_bn2", "epsilon": 1e-05, "trainable": true, "moving_variance_initializer": {"class_name": "Ones", "config": {}}, "beta_initializer": {"class_name": "Zeros", "config": {}}, "scale": true, "axis": 1, "gamma_constraint": null, "gamma_regularizer": null, "beta_regularizer": null, "momentum": 0.99, "center": true}, "inbound_nodes": [[["inception_3b_5x5_conv2", 0, 0, {}]]], "name": "inception_3b_5x5_bn2"}, {"class_name": "Activation", "config": {"activation": "relu", "trainable": true, "name": "activation_14"}, "inbound_nodes": [[["inception_3b_pool_bn", 0, 0, {}]]], "name": "activation_14"}, {"class_name": "BatchNormalization", "config": {"beta_constraint": null, "gamma_initializer": {"class_name": "Ones", "config": {}}, "moving_mean_initializer": {"class_name": "Zeros", "config": {}}, "name": "inception_3b_1x1_bn", "epsilon": 1e-05, "trainable": true, "moving_variance_initializer": {"class_name": "Ones", "config": {}}, "beta_initializer": {"class_name": "Zeros", "config": {}}, "scale": true, "axis": 1, "gamma_constraint": null, "gamma_regularizer": null, "beta_regularizer": null, "momentum": 0.99, "center": true}, "inbound_nodes": [[["inception_3b_1x1_conv", 0, 0, {}]]], "name": "inception_3b_1x1_bn"}, {"class_name": "Activation", "config": {"activation": "relu", "trainable": true, "name": "activation_11"}, "inbound_nodes": [[["inception_3b_3x3_bn2", 0, 0, {}]]], "name": "activation_11"}, {"class_name": "Activation", "config": {"activation": "relu", "trainable": true, "name": "activation_13"}, "inbound_nodes": [[["inception_3b_5x5_bn2", 0, 0, {}]]], "name": "activation_13"}, {"class_name": "ZeroPadding2D", "config": {"padding": [[4, 4], [4, 4]], "trainable": true, "name": "zero_padding2d_10", "data_format": "channels_first"}, "inbound_nodes": [[["activation_14", 0, 0, {}]]], "name": "zero_padding2d_10"}, {"class_name": "Activation", "config": {"activation": "relu", "trainable": true, "name": "activation_15"}, "inbound_nodes": [[["inception_3b_1x1_bn", 0, 0, {}]]], "name": "activation_15"}, {"class_name": "Concatenate", "config": {"trainable": true, "name": "concatenate_2", "axis": 1}, "inbound_nodes": [[["activation_11", 0, 0, {}], ["activation_13", 0, 0, {}], ["zero_padding2d_10", 0, 0, {}], ["activation_15", 0, 0, {}]]], "name": "concatenate_2"}, {"class_name": "Conv2D", "config": {"kernel_constraint": null, "kernel_initializer": {"class_name": "VarianceScaling", "config": {"distribution": "uniform", "scale": 1.0, "seed": null, "mode": "fan_avg"}}, "name": "inception_3c_3x3_conv1", "bias_regularizer": null, "bias_constraint": null, "activation": "linear", "trainable": true, "data_format": "channels_first", "padding": "valid", "strides": [1, 1], "dilation_rate": [1, 1], "kernel_regularizer": null, "filters": 128, "bias_initializer": {"class_name": "Zeros", "config": {}}, "use_bias": true, "activity_regularizer": null, "kernel_size": [1, 1]}, "inbound_nodes": [[["concatenate_2", 0, 0, {}]]], "name": "inception_3c_3x3_conv1"}, {"class_name": "Conv2D", "config": {"kernel_constraint": null, "kernel_initializer": {"class_name": "VarianceScaling", "config": {"distribution": "uniform", "scale": 1.0, "seed": null, "mode": "fan_avg"}}, "name": "inception_3c_5x5_conv1", "bias_regularizer": null, "bias_constraint": null, "activation": "linear", "trainable": true, "data_format": "channels_first", "padding": "valid", "strides": [1, 1], "dilation_rate": [1, 1], "kernel_regularizer": null, "filters": 32, "bias_initializer": {"class_name": "Zeros", "config": {}}, "use_bias": true, "activity_regularizer": null, "kernel_size": [1, 1]}, "inbound_nodes": [[["concatenate_2", 0, 0, {}]]], "name": "inception_3c_5x5_conv1"}, {"class_name": "BatchNormalization", "config": {"beta_constraint": null, "gamma_initializer": {"class_name": "Ones", "config": {}}, "moving_mean_initializer": {"class_name": "Zeros", "config": {}}, "name": "inception_3c_3x3_bn1", "epsilon": 1e-05, "trainable": true, "moving_variance_initializer": {"class_name": "Ones", "config": {}}, "beta_initializer": {"class_name": "Zeros", "config": {}}, "scale": true, "axis": 1, "gamma_constraint": null, "gamma_regularizer": null, "beta_regularizer": null, "momentum": 0.99, "center": true}, "inbound_nodes": [[["inception_3c_3x3_conv1", 0, 0, {}]]], "name": "inception_3c_3x3_bn1"}, {"class_name": "BatchNormalization", "config": {"beta_constraint": null, "gamma_initializer": {"class_name": "Ones", "config": {}}, "moving_mean_initializer": {"class_name": "Zeros", "config": {}}, "name": "inception_3c_5x5_bn1", "epsilon": 1e-05, "trainable": true, "moving_variance_initializer": {"class_name": "Ones", "config": {}}, "beta_initializer": {"class_name": "Zeros", "config": {}}, "scale": true, "axis": 1, "gamma_constraint": null, "gamma_regularizer": null, "beta_regularizer": null, "momentum": 0.99, "center": true}, "inbound_nodes": [[["inception_3c_5x5_conv1", 0, 0, {}]]], "name": "inception_3c_5x5_bn1"}, {"class_name": "Activation", "config": {"activation": "relu", "trainable": true, "name": "activation_16"}, "inbound_nodes": [[["inception_3c_3x3_bn1", 0, 0, {}]]], "name": "activation_16"}, {"class_name": "Activation", "config": {"activation": "relu", "trainable": true, "name": "activation_18"}, "inbound_nodes": [[["inception_3c_5x5_bn1", 0, 0, {}]]], "name": "activation_18"}, {"class_name": "ZeroPadding2D", "config": {"padding": [[1, 1], [1, 1]], "trainable": true, "name": "zero_padding2d_11", "data_format": "channels_first"}, "inbound_nodes": [[["activation_16", 0, 0, {}]]], "name": "zero_padding2d_11"}, {"class_name": "ZeroPadding2D", "config": {"padding": [[2, 2], [2, 2]], "trainable": true, "name": "zero_padding2d_12", "data_format": "channels_first"}, "inbound_nodes": [[["activation_18", 0, 0, {}]]], "name": "zero_padding2d_12"}, {"class_name": "Conv2D", "config": {"kernel_constraint": null, "kernel_initializer": {"class_name": "VarianceScaling", "config": {"distribution": "uniform", "scale": 1.0, "seed": null, "mode": "fan_avg"}}, "name": "inception_3c_3x3_conv2", "bias_regularizer": null, "bias_constraint": null, "activation": "linear", "trainable": true, "data_format": "channels_first", "padding": "valid", "strides": [2, 2], "dilation_rate": [1, 1], "kernel_regularizer": null, "filters": 256, "bias_initializer": {"class_name": "Zeros", "config": {}}, "use_bias": true, "activity_regularizer": null, "kernel_size": [3, 3]}, "inbound_nodes": [[["zero_padding2d_11", 0, 0, {}]]], "name": "inception_3c_3x3_conv2"}, {"class_name": "Conv2D", "config": {"kernel_constraint": null, "kernel_initializer": {"class_name": "VarianceScaling", "config": {"distribution": "uniform", "scale": 1.0, "seed": null, "mode": "fan_avg"}}, "name": "inception_3c_5x5_conv2", "bias_regularizer": null, "bias_constraint": null, "activation": "linear", "trainable": true, "data_format": "channels_first", "padding": "valid", "strides": [2, 2], "dilation_rate": [1, 1], "kernel_regularizer": null, "filters": 64, "bias_initializer": {"class_name": "Zeros", "config": {}}, "use_bias": true, "activity_regularizer": null, "kernel_size": [5, 5]}, "inbound_nodes": [[["zero_padding2d_12", 0, 0, {}]]], "name": "inception_3c_5x5_conv2"}, {"class_name": "BatchNormalization", "config": {"beta_constraint": null, "gamma_initializer": {"class_name": "Ones", "config": {}}, "moving_mean_initializer": {"class_name": "Zeros", "config": {}}, "name": "inception_3c_3x3_bn2", "epsilon": 1e-05, "trainable": true, "moving_variance_initializer": {"class_name": "Ones", "config": {}}, "beta_initializer": {"class_name": "Zeros", "config": {}}, "scale": true, "axis": 1, "gamma_constraint": null, "gamma_regularizer": null, "beta_regularizer": null, "momentum": 0.99, "center": true}, "inbound_nodes": [[["inception_3c_3x3_conv2", 0, 0, {}]]], "name": "inception_3c_3x3_bn2"}, {"class_name": "BatchNormalization", "config": {"beta_constraint": null, "gamma_initializer": {"class_name": "Ones", "config": {}}, "moving_mean_initializer": {"class_name": "Zeros", "config": {}}, "name": "inception_3c_5x5_bn2", "epsilon": 1e-05, "trainable": true, "moving_variance_initializer": {"class_name": "Ones", "config": {}}, "beta_initializer": {"class_name": "Zeros", "config": {}}, "scale": true, "axis": 1, "gamma_constraint": null, "gamma_regularizer": null, "beta_regularizer": null, "momentum": 0.99, "center": true}, "inbound_nodes": [[["inception_3c_5x5_conv2", 0, 0, {}]]], "name": "inception_3c_5x5_bn2"}, {"class_name": "MaxPooling2D", "config": {"name": "max_pooling2d_4", "trainable": true, "data_format": "channels_first", "pool_size": [3, 3], "padding": "valid", "strides": [2, 2]}, "inbound_nodes": [[["concatenate_2", 0, 0, {}]]], "name": "max_pooling2d_4"}, {"class_name": "Activation", "config": {"activation": "relu", "trainable": true, "name": "activation_17"}, "inbound_nodes": [[["inception_3c_3x3_bn2", 0, 0, {}]]], "name": "activation_17"}, {"class_name": "Activation", "config": {"activation": "relu", "trainable": true, "name": "activation_19"}, "inbound_nodes": [[["inception_3c_5x5_bn2", 0, 0, {}]]], "name": "activation_19"}, {"class_name": "ZeroPadding2D", "config": {"padding": [[0, 1], [0, 1]], "trainable": true, "name": "zero_padding2d_13", "data_format": "channels_first"}, "inbound_nodes": [[["max_pooling2d_4", 0, 0, {}]]], "name": "zero_padding2d_13"}, {"class_name": "Concatenate", "config": {"trainable": true, "name": "concatenate_3", "axis": 1}, "inbound_nodes": [[["activation_17", 0, 0, {}], ["activation_19", 0, 0, {}], ["zero_padding2d_13", 0, 0, {}]]], "name": "concatenate_3"}, {"class_name": "Conv2D", "config": {"kernel_constraint": null, "kernel_initializer": {"class_name": "VarianceScaling", "config": {"distribution": "uniform", "scale": 1.0, "seed": null, "mode": "fan_avg"}}, "name": "inception_4a_3x3_conv1", "bias_regularizer": null, "bias_constraint": null, "activation": "linear", "trainable": true, "data_format": "channels_first", "padding": "valid", "strides": [1, 1], "dilation_rate": [1, 1], "kernel_regularizer": null, "filters": 96, "bias_initializer": {"class_name": "Zeros", "config": {}}, "use_bias": true, "activity_regularizer": null, "kernel_size": [1, 1]}, "inbound_nodes": [[["concatenate_3", 0, 0, {}]]], "name": "inception_4a_3x3_conv1"}, {"class_name": "Conv2D", "config": {"kernel_constraint": null, "kernel_initializer": {"class_name": "VarianceScaling", "config": {"distribution": "uniform", "scale": 1.0, "seed": null, "mode": "fan_avg"}}, "name": "inception_4a_5x5_conv1", "bias_regularizer": null, "bias_constraint": null, "activation": "linear", "trainable": true, "data_format": "channels_first", "padding": "valid", "strides": [1, 1], "dilation_rate": [1, 1], "kernel_regularizer": null, "filters": 32, "bias_initializer": {"class_name": "Zeros", "config": {}}, "use_bias": true, "activity_regularizer": null, "kernel_size": [1, 1]}, "inbound_nodes": [[["concatenate_3", 0, 0, {}]]], "name": "inception_4a_5x5_conv1"}, {"class_name": "BatchNormalization", "config": {"beta_constraint": null, "gamma_initializer": {"class_name": "Ones", "config": {}}, "moving_mean_initializer": {"class_name": "Zeros", "config": {}}, "name": "inception_4a_3x3_bn1", "epsilon": 1e-05, "trainable": true, "moving_variance_initializer": {"class_name": "Ones", "config": {}}, "beta_initializer": {"class_name": "Zeros", "config": {}}, "scale": true, "axis": 1, "gamma_constraint": null, "gamma_regularizer": null, "beta_regularizer": null, "momentum": 0.99, "center": true}, "inbound_nodes": [[["inception_4a_3x3_conv1", 0, 0, {}]]], "name": "inception_4a_3x3_bn1"}, {"class_name": "BatchNormalization", "config": {"beta_constraint": null, "gamma_initializer": {"class_name": "Ones", "config": {}}, "moving_mean_initializer": {"class_name": "Zeros", "config": {}}, "name": "inception_4a_5x5_bn1", "epsilon": 1e-05, "trainable": true, "moving_variance_initializer": {"class_name": "Ones", "config": {}}, "beta_initializer": {"class_name": "Zeros", "config": {}}, "scale": true, "axis": 1, "gamma_constraint": null, "gamma_regularizer": null, "beta_regularizer": null, "momentum": 0.99, "center": true}, "inbound_nodes": [[["inception_4a_5x5_conv1", 0, 0, {}]]], "name": "inception_4a_5x5_bn1"}, {"class_name": "Activation", "config": {"activation": "relu", "trainable": true, "name": "activation_20"}, "inbound_nodes": [[["inception_4a_3x3_bn1", 0, 0, {}]]], "name": "activation_20"}, {"class_name": "Activation", "config": {"activation": "relu", "trainable": true, "name": "activation_22"}, "inbound_nodes": [[["inception_4a_5x5_bn1", 0, 0, {}]]], "name": "activation_22"}, {"class_name": "AveragePooling2D", "config": {"name": "average_pooling2d_2", "trainable": true, "data_format": "channels_first", "pool_size": [3, 3], "padding": "valid", "strides": [3, 3]}, "inbound_nodes": [[["concatenate_3", 0, 0, {}]]], "name": "average_pooling2d_2"}, {"class_name": "ZeroPadding2D", "config": {"padding": [[1, 1], [1, 1]], "trainable": true, "name": "zero_padding2d_14", "data_format": "channels_first"}, "inbound_nodes": [[["activation_20", 0, 0, {}]]], "name": "zero_padding2d_14"}, {"class_name": "ZeroPadding2D", "config": {"padding": [[2, 2], [2, 2]], "trainable": true, "name": "zero_padding2d_15", "data_format": "channels_first"}, "inbound_nodes": [[["activation_22", 0, 0, {}]]], "name": "zero_padding2d_15"}, {"class_name": "Conv2D", "config": {"kernel_constraint": null, "kernel_initializer": {"class_name": "VarianceScaling", "config": {"distribution": "uniform", "scale": 1.0, "seed": null, "mode": "fan_avg"}}, "name": "inception_4a_pool_conv", "bias_regularizer": null, "bias_constraint": null, "activation": "linear", "trainable": true, "data_format": "channels_first", "padding": "valid", "strides": [1, 1], "dilation_rate": [1, 1], "kernel_regularizer": null, "filters": 128, "bias_initializer": {"class_name": "Zeros", "config": {}}, "use_bias": true, "activity_regularizer": null, "kernel_size": [1, 1]}, "inbound_nodes": [[["average_pooling2d_2", 0, 0, {}]]], "name": "inception_4a_pool_conv"}, {"class_name": "Conv2D", "config": {"kernel_constraint": null, "kernel_initializer": {"class_name": "VarianceScaling", "config": {"distribution": "uniform", "scale": 1.0, "seed": null, "mode": "fan_avg"}}, "name": "inception_4a_3x3_conv2", "bias_regularizer": null, "bias_constraint": null, "activation": "linear", "trainable": true, "data_format": "channels_first", "padding": "valid", "strides": [1, 1], "dilation_rate": [1, 1], "kernel_regularizer": null, "filters": 192, "bias_initializer": {"class_name": "Zeros", "config": {}}, "use_bias": true, "activity_regularizer": null, "kernel_size": [3, 3]}, "inbound_nodes": [[["zero_padding2d_14", 0, 0, {}]]], "name": "inception_4a_3x3_conv2"}, {"class_name": "Conv2D", "config": {"kernel_constraint": null, "kernel_initializer": {"class_name": "VarianceScaling", "config": {"distribution": "uniform", "scale": 1.0, "seed": null, "mode": "fan_avg"}}, "name": "inception_4a_5x5_conv2", "bias_regularizer": null, "bias_constraint": null, "activation": "linear", "trainable": true, "data_format": "channels_first", "padding": "valid", "strides": [1, 1], "dilation_rate": [1, 1], "kernel_regularizer": null, "filters": 64, "bias_initializer": {"class_name": "Zeros", "config": {}}, "use_bias": true, "activity_regularizer": null, "kernel_size": [5, 5]}, "inbound_nodes": [[["zero_padding2d_15", 0, 0, {}]]], "name": "inception_4a_5x5_conv2"}, {"class_name": "BatchNormalization", "config": {"beta_constraint": null, "gamma_initializer": {"class_name": "Ones", "config": {}}, "moving_mean_initializer": {"class_name": "Zeros", "config": {}}, "name": "inception_4a_pool_bn", "epsilon": 1e-05, "trainable": true, "moving_variance_initializer": {"class_name": "Ones", "config": {}}, "beta_initializer": {"class_name": "Zeros", "config": {}}, "scale": true, "axis": 1, "gamma_constraint": null, "gamma_regularizer": null, "beta_regularizer": null, "momentum": 0.99, "center": true}, "inbound_nodes": [[["inception_4a_pool_conv", 0, 0, {}]]], "name": "inception_4a_pool_bn"}, {"class_name": "Conv2D", "config": {"kernel_constraint": null, "kernel_initializer": {"class_name": "VarianceScaling", "config": {"distribution": "uniform", "scale": 1.0, "seed": null, "mode": "fan_avg"}}, "name": "inception_4a_1x1_conv", "bias_regularizer": null, "bias_constraint": null, "activation": "linear", "trainable": true, "data_format": "channels_first", "padding": "valid", "strides": [1, 1], "dilation_rate": [1, 1], "kernel_regularizer": null, "filters": 256, "bias_initializer": {"class_name": "Zeros", "config": {}}, "use_bias": true, "activity_regularizer": null, "kernel_size": [1, 1]}, "inbound_nodes": [[["concatenate_3", 0, 0, {}]]], "name": "inception_4a_1x1_conv"}, {"class_name": "BatchNormalization", "config": {"beta_constraint": null, "gamma_initializer": {"class_name": "Ones", "config": {}}, "moving_mean_initializer": {"class_name": "Zeros", "config": {}}, "name": "inception_4a_3x3_bn2", "epsilon": 1e-05, "trainable": true, "moving_variance_initializer": {"class_name": "Ones", "config": {}}, "beta_initializer": {"class_name": "Zeros", "config": {}}, "scale": true, "axis": 1, "gamma_constraint": null, "gamma_regularizer": null, "beta_regularizer": null, "momentum": 0.99, "center": true}, "inbound_nodes": [[["inception_4a_3x3_conv2", 0, 0, {}]]], "name": "inception_4a_3x3_bn2"}, {"class_name": "BatchNormalization", "config": {"beta_constraint": null, "gamma_initializer": {"class_name": "Ones", "config": {}}, "moving_mean_initializer": {"class_name": "Zeros", "config": {}}, "name": "inception_4a_5x5_bn2", "epsilon": 1e-05, "trainable": true, "moving_variance_initializer": {"class_name": "Ones", "config": {}}, "beta_initializer": {"class_name": "Zeros", "config": {}}, "scale": true, "axis": 1, "gamma_constraint": null, "gamma_regularizer": null, "beta_regularizer": null, "momentum": 0.99, "center": true}, "inbound_nodes": [[["inception_4a_5x5_conv2", 0, 0, {}]]], "name": "inception_4a_5x5_bn2"}, {"class_name": "Activation", "config": {"activation": "relu", "trainable": true, "name": "activation_24"}, "inbound_nodes": [[["inception_4a_pool_bn", 0, 0, {}]]], "name": "activation_24"}, {"class_name": "BatchNormalization", "config": {"beta_constraint": null, "gamma_initializer": {"class_name": "Ones", "config": {}}, "moving_mean_initializer": {"class_name": "Zeros", "config": {}}, "name": "inception_4a_1x1_bn", "epsilon": 1e-05, "trainable": true, "moving_variance_initializer": {"class_name": "Ones", "config": {}}, "beta_initializer": {"class_name": "Zeros", "config": {}}, "scale": true, "axis": 1, "gamma_constraint": null, "gamma_regularizer": null, "beta_regularizer": null, "momentum": 0.99, "center": true}, "inbound_nodes": [[["inception_4a_1x1_conv", 0, 0, {}]]], "name": "inception_4a_1x1_bn"}, {"class_name": "Activation", "config": {"activation": "relu", "trainable": true, "name": "activation_21"}, "inbound_nodes": [[["inception_4a_3x3_bn2", 0, 0, {}]]], "name": "activation_21"}, {"class_name": "Activation", "config": {"activation": "relu", "trainable": true, "name": "activation_23"}, "inbound_nodes": [[["inception_4a_5x5_bn2", 0, 0, {}]]], "name": "activation_23"}, {"class_name": "ZeroPadding2D", "config": {"padding": [[2, 2], [2, 2]], "trainable": true, "name": "zero_padding2d_16", "data_format": "channels_first"}, "inbound_nodes": [[["activation_24", 0, 0, {}]]], "name": "zero_padding2d_16"}, {"class_name": "Activation", "config": {"activation": "relu", "trainable": true, "name": "activation_25"}, "inbound_nodes": [[["inception_4a_1x1_bn", 0, 0, {}]]], "name": "activation_25"}, {"class_name": "Concatenate", "config": {"trainable": true, "name": "concatenate_4", "axis": 1}, "inbound_nodes": [[["activation_21", 0, 0, {}], ["activation_23", 0, 0, {}], ["zero_padding2d_16", 0, 0, {}], ["activation_25", 0, 0, {}]]], "name": "concatenate_4"}, {"class_name": "Conv2D", "config": {"kernel_constraint": null, "kernel_initializer": {"class_name": "VarianceScaling", "config": {"distribution": "uniform", "scale": 1.0, "seed": null, "mode": "fan_avg"}}, "name": "inception_4e_3x3_conv1", "bias_regularizer": null, "bias_constraint": null, "activation": "linear", "trainable": true, "data_format": "channels_first", "padding": "valid", "strides": [1, 1], "dilation_rate": [1, 1], "kernel_regularizer": null, "filters": 160, "bias_initializer": {"class_name": "Zeros", "config": {}}, "use_bias": true, "activity_regularizer": null, "kernel_size": [1, 1]}, "inbound_nodes": [[["concatenate_4", 0, 0, {}]]], "name": "inception_4e_3x3_conv1"}, {"class_name": "Conv2D", "config": {"kernel_constraint": null, "kernel_initializer": {"class_name": "VarianceScaling", "config": {"distribution": "uniform", "scale": 1.0, "seed": null, "mode": "fan_avg"}}, "name": "inception_4e_5x5_conv1", "bias_regularizer": null, "bias_constraint": null, "activation": "linear", "trainable": true, "data_format": "channels_first", "padding": "valid", "strides": [1, 1], "dilation_rate": [1, 1], "kernel_regularizer": null, "filters": 64, "bias_initializer": {"class_name": "Zeros", "config": {}}, "use_bias": true, "activity_regularizer": null, "kernel_size": [1, 1]}, "inbound_nodes": [[["concatenate_4", 0, 0, {}]]], "name": "inception_4e_5x5_conv1"}, {"class_name": "BatchNormalization", "config": {"beta_constraint": null, "gamma_initializer": {"class_name": "Ones", "config": {}}, "moving_mean_initializer": {"class_name": "Zeros", "config": {}}, "name": "inception_4e_3x3_bn1", "epsilon": 1e-05, "trainable": true, "moving_variance_initializer": {"class_name": "Ones", "config": {}}, "beta_initializer": {"class_name": "Zeros", "config": {}}, "scale": true, "axis": 1, "gamma_constraint": null, "gamma_regularizer": null, "beta_regularizer": null, "momentum": 0.99, "center": true}, "inbound_nodes": [[["inception_4e_3x3_conv1", 0, 0, {}]]], "name": "inception_4e_3x3_bn1"}, {"class_name": "BatchNormalization", "config": {"beta_constraint": null, "gamma_initializer": {"class_name": "Ones", "config": {}}, "moving_mean_initializer": {"class_name": "Zeros", "config": {}}, "name": "inception_4e_5x5_bn1", "epsilon": 1e-05, "trainable": true, "moving_variance_initializer": {"class_name": "Ones", "config": {}}, "beta_initializer": {"class_name": "Zeros", "config": {}}, "scale": true, "axis": 1, "gamma_constraint": null, "gamma_regularizer": null, "beta_regularizer": null, "momentum": 0.99, "center": true}, "inbound_nodes": [[["inception_4e_5x5_conv1", 0, 0, {}]]], "name": "inception_4e_5x5_bn1"}, {"class_name": "Activation", "config": {"activation": "relu", "trainable": true, "name": "activation_26"}, "inbound_nodes": [[["inception_4e_3x3_bn1", 0, 0, {}]]], "name": "activation_26"}, {"class_name": "Activation", "config": {"activation": "relu", "trainable": true, "name": "activation_28"}, "inbound_nodes": [[["inception_4e_5x5_bn1", 0, 0, {}]]], "name": "activation_28"}, {"class_name": "ZeroPadding2D", "config": {"padding": [[1, 1], [1, 1]], "trainable": true, "name": "zero_padding2d_17", "data_format": "channels_first"}, "inbound_nodes": [[["activation_26", 0, 0, {}]]], "name": "zero_padding2d_17"}, {"class_name": "ZeroPadding2D", "config": {"padding": [[2, 2], [2, 2]], "trainable": true, "name": "zero_padding2d_18", "data_format": "channels_first"}, "inbound_nodes": [[["activation_28", 0, 0, {}]]], "name": "zero_padding2d_18"}, {"class_name": "Conv2D", "config": {"kernel_constraint": null, "kernel_initializer": {"class_name": "VarianceScaling", "config": {"distribution": "uniform", "scale": 1.0, "seed": null, "mode": "fan_avg"}}, "name": "inception_4e_3x3_conv2", "bias_regularizer": null, "bias_constraint": null, "activation": "linear", "trainable": true, "data_format": "channels_first", "padding": "valid", "strides": [2, 2], "dilation_rate": [1, 1], "kernel_regularizer": null, "filters": 256, "bias_initializer": {"class_name": "Zeros", "config": {}}, "use_bias": true, "activity_regularizer": null, "kernel_size": [3, 3]}, "inbound_nodes": [[["zero_padding2d_17", 0, 0, {}]]], "name": "inception_4e_3x3_conv2"}, {"class_name": "Conv2D", "config": {"kernel_constraint": null, "kernel_initializer": {"class_name": "VarianceScaling", "config": {"distribution": "uniform", "scale": 1.0, "seed": null, "mode": "fan_avg"}}, "name": "inception_4e_5x5_conv2", "bias_regularizer": null, "bias_constraint": null, "activation": "linear", "trainable": true, "data_format": "channels_first", "padding": "valid", "strides": [2, 2], "dilation_rate": [1, 1], "kernel_regularizer": null, "filters": 128, "bias_initializer": {"class_name": "Zeros", "config": {}}, "use_bias": true, "activity_regularizer": null, "kernel_size": [5, 5]}, "inbound_nodes": [[["zero_padding2d_18", 0, 0, {}]]], "name": "inception_4e_5x5_conv2"}, {"class_name": "BatchNormalization", "config": {"beta_constraint": null, "gamma_initializer": {"class_name": "Ones", "config": {}}, "moving_mean_initializer": {"class_name": "Zeros", "config": {}}, "name": "inception_4e_3x3_bn2", "epsilon": 1e-05, "trainable": true, "moving_variance_initializer": {"class_name": "Ones", "config": {}}, "beta_initializer": {"class_name": "Zeros", "config": {}}, "scale": true, "axis": 1, "gamma_constraint": null, "gamma_regularizer": null, "beta_regularizer": null, "momentum": 0.99, "center": true}, "inbound_nodes": [[["inception_4e_3x3_conv2", 0, 0, {}]]], "name": "inception_4e_3x3_bn2"}, {"class_name": "BatchNormalization", "config": {"beta_constraint": null, "gamma_initializer": {"class_name": "Ones", "config": {}}, "moving_mean_initializer": {"class_name": "Zeros", "config": {}}, "name": "inception_4e_5x5_bn2", "epsilon": 1e-05, "trainable": true, "moving_variance_initializer": {"class_name": "Ones", "config": {}}, "beta_initializer": {"class_name": "Zeros", "config": {}}, "scale": true, "axis": 1, "gamma_constraint": null, "gamma_regularizer": null, "beta_regularizer": null, "momentum": 0.99, "center": true}, "inbound_nodes": [[["inception_4e_5x5_conv2", 0, 0, {}]]], "name": "inception_4e_5x5_bn2"}, {"class_name": "MaxPooling2D", "config": {"name": "max_pooling2d_5", "trainable": true, "data_format": "channels_first", "pool_size": [3, 3], "padding": "valid", "strides": [2, 2]}, "inbound_nodes": [[["concatenate_4", 0, 0, {}]]], "name": "max_pooling2d_5"}, {"class_name": "Activation", "config": {"activation": "relu", "trainable": true, "name": "activation_27"}, "inbound_nodes": [[["inception_4e_3x3_bn2", 0, 0, {}]]], "name": "activation_27"}, {"class_name": "Activation", "config": {"activation": "relu", "trainable": true, "name": "activation_29"}, "inbound_nodes": [[["inception_4e_5x5_bn2", 0, 0, {}]]], "name": "activation_29"}, {"class_name": "ZeroPadding2D", "config": {"padding": [[0, 1], [0, 1]], "trainable": true, "name": "zero_padding2d_19", "data_format": "channels_first"}, "inbound_nodes": [[["max_pooling2d_5", 0, 0, {}]]], "name": "zero_padding2d_19"}, {"class_name": "Concatenate", "config": {"trainable": true, "name": "concatenate_5", "axis": 1}, "inbound_nodes": [[["activation_27", 0, 0, {}], ["activation_29", 0, 0, {}], ["zero_padding2d_19", 0, 0, {}]]], "name": "concatenate_5"}, {"class_name": "Conv2D", "config": {"kernel_constraint": null, "kernel_initializer": {"class_name": "VarianceScaling", "config": {"distribution": "uniform", "scale": 1.0, "seed": null, "mode": "fan_avg"}}, "name": "inception_5a_3x3_conv1", "bias_regularizer": null, "bias_constraint": null, "activation": "linear", "trainable": true, "data_format": "channels_first", "padding": "valid", "strides": [1, 1], "dilation_rate": [1, 1], "kernel_regularizer": null, "filters": 96, "bias_initializer": {"class_name": "Zeros", "config": {}}, "use_bias": true, "activity_regularizer": null, "kernel_size": [1, 1]}, "inbound_nodes": [[["concatenate_5", 0, 0, {}]]], "name": "inception_5a_3x3_conv1"}, {"class_name": "BatchNormalization", "config": {"beta_constraint": null, "gamma_initializer": {"class_name": "Ones", "config": {}}, "moving_mean_initializer": {"class_name": "Zeros", "config": {}}, "name": "inception_5a_3x3_bn1", "epsilon": 1e-05, "trainable": true, "moving_variance_initializer": {"class_name": "Ones", "config": {}}, "beta_initializer": {"class_name": "Zeros", "config": {}}, "scale": true, "axis": 1, "gamma_constraint": null, "gamma_regularizer": null, "beta_regularizer": null, "momentum": 0.99, "center": true}, "inbound_nodes": [[["inception_5a_3x3_conv1", 0, 0, {}]]], "name": "inception_5a_3x3_bn1"}, {"class_name": "Activation", "config": {"activation": "relu", "trainable": true, "name": "activation_30"}, "inbound_nodes": [[["inception_5a_3x3_bn1", 0, 0, {}]]], "name": "activation_30"}, {"class_name": "AveragePooling2D", "config": {"name": "average_pooling2d_3", "trainable": true, "data_format": "channels_first", "pool_size": [3, 3], "padding": "valid", "strides": [3, 3]}, "inbound_nodes": [[["concatenate_5", 0, 0, {}]]], "name": "average_pooling2d_3"}, {"class_name": "ZeroPadding2D", "config": {"padding": [[1, 1], [1, 1]], "trainable": true, "name": "zero_padding2d_20", "data_format": "channels_first"}, "inbound_nodes": [[["activation_30", 0, 0, {}]]], "name": "zero_padding2d_20"}, {"class_name": "Conv2D", "config": {"kernel_constraint": null, "kernel_initializer": {"class_name": "VarianceScaling", "config": {"distribution": "uniform", "scale": 1.0, "seed": null, "mode": "fan_avg"}}, "name": "inception_5a_pool_conv", "bias_regularizer": null, "bias_constraint": null, "activation": "linear", "trainable": true, "data_format": "channels_first", "padding": "valid", "strides": [1, 1], "dilation_rate": [1, 1], "kernel_regularizer": null, "filters": 96, "bias_initializer": {"class_name": "Zeros", "config": {}}, "use_bias": true, "activity_regularizer": null, "kernel_size": [1, 1]}, "inbound_nodes": [[["average_pooling2d_3", 0, 0, {}]]], "name": "inception_5a_pool_conv"}, {"class_name": "Conv2D", "config": {"kernel_constraint": null, "kernel_initializer": {"class_name": "VarianceScaling", "config": {"distribution": "uniform", "scale": 1.0, "seed": null, "mode": "fan_avg"}}, "name": "inception_5a_3x3_conv2", "bias_regularizer": null, "bias_constraint": null, "activation": "linear", "trainable": true, "data_format": "channels_first", "padding": "valid", "strides": [1, 1], "dilation_rate": [1, 1], "kernel_regularizer": null, "filters": 384, "bias_initializer": {"class_name": "Zeros", "config": {}}, "use_bias": true, "activity_regularizer": null, "kernel_size": [3, 3]}, "inbound_nodes": [[["zero_padding2d_20", 0, 0, {}]]], "name": "inception_5a_3x3_conv2"}, {"class_name": "BatchNormalization", "config": {"beta_constraint": null, "gamma_initializer": {"class_name": "Ones", "config": {}}, "moving_mean_initializer": {"class_name": "Zeros", "config": {}}, "name": "inception_5a_pool_bn", "epsilon": 1e-05, "trainable": true, "moving_variance_initializer": {"class_name": "Ones", "config": {}}, "beta_initializer": {"class_name": "Zeros", "config": {}}, "scale": true, "axis": 1, "gamma_constraint": null, "gamma_regularizer": null, "beta_regularizer": null, "momentum": 0.99, "center": true}, "inbound_nodes": [[["inception_5a_pool_conv", 0, 0, {}]]], "name": "inception_5a_pool_bn"}, {"class_name": "Conv2D", "config": {"kernel_constraint": null, "kernel_initializer": {"class_name": "VarianceScaling", "config": {"distribution": "uniform", "scale": 1.0, "seed": null, "mode": "fan_avg"}}, "name": "inception_5a_1x1_conv", "bias_regularizer": null, "bias_constraint": null, "activation": "linear", "trainable": true, "data_format": "channels_first", "padding": "valid", "strides": [1, 1], "dilation_rate": [1, 1], "kernel_regularizer": null, "filters": 256, "bias_initializer": {"class_name": "Zeros", "config": {}}, "use_bias": true, "activity_regularizer": null, "kernel_size": [1, 1]}, "inbound_nodes": [[["concatenate_5", 0, 0, {}]]], "name": "inception_5a_1x1_conv"}, {"class_name": "BatchNormalization", "config": {"beta_constraint": null, "gamma_initializer": {"class_name": "Ones", "config": {}}, "moving_mean_initializer": {"class_name": "Zeros", "config": {}}, "name": "inception_5a_3x3_bn2", "epsilon": 1e-05, "trainable": true, "moving_variance_initializer": {"class_name": "Ones", "config": {}}, "beta_initializer": {"class_name": "Zeros", "config": {}}, "scale": true, "axis": 1, "gamma_constraint": null, "gamma_regularizer": null, "beta_regularizer": null, "momentum": 0.99, "center": true}, "inbound_nodes": [[["inception_5a_3x3_conv2", 0, 0, {}]]], "name": "inception_5a_3x3_bn2"}, {"class_name": "Activation", "config": {"activation": "relu", "trainable": true, "name": "activation_32"}, "inbound_nodes": [[["inception_5a_pool_bn", 0, 0, {}]]], "name": "activation_32"}, {"class_name": "BatchNormalization", "config": {"beta_constraint": null, "gamma_initializer": {"class_name": "Ones", "config": {}}, "moving_mean_initializer": {"class_name": "Zeros", "config": {}}, "name": "inception_5a_1x1_bn", "epsilon": 1e-05, "trainable": true, "moving_variance_initializer": {"class_name": "Ones", "config": {}}, "beta_initializer": {"class_name": "Zeros", "config": {}}, "scale": true, "axis": 1, "gamma_constraint": null, "gamma_regularizer": null, "beta_regularizer": null, "momentum": 0.99, "center": true}, "inbound_nodes": [[["inception_5a_1x1_conv", 0, 0, {}]]], "name": "inception_5a_1x1_bn"}, {"class_name": "Activation", "config": {"activation": "relu", "trainable": true, "name": "activation_31"}, "inbound_nodes": [[["inception_5a_3x3_bn2", 0, 0, {}]]], "name": "activation_31"}, {"class_name": "ZeroPadding2D", "config": {"padding": [[1, 1], [1, 1]], "trainable": true, "name": "zero_padding2d_21", "data_format": "channels_first"}, "inbound_nodes": [[["activation_32", 0, 0, {}]]], "name": "zero_padding2d_21"}, {"class_name": "Activation", "config": {"activation": "relu", "trainable": true, "name": "activation_33"}, "inbound_nodes": [[["inception_5a_1x1_bn", 0, 0, {}]]], "name": "activation_33"}, {"class_name": "Concatenate", "config": {"trainable": true, "name": "concatenate_6", "axis": 1}, "inbound_nodes": [[["activation_31", 0, 0, {}], ["zero_padding2d_21", 0, 0, {}], ["activation_33", 0, 0, {}]]], "name": "concatenate_6"}, {"class_name": "Conv2D", "config": {"kernel_constraint": null, "kernel_initializer": {"class_name": "VarianceScaling", "config": {"distribution": "uniform", "scale": 1.0, "seed": null, "mode": "fan_avg"}}, "name": "inception_5b_3x3_conv1", "bias_regularizer": null, "bias_constraint": null, "activation": "linear", "trainable": true, "data_format": "channels_first", "padding": "valid", "strides": [1, 1], "dilation_rate": [1, 1], "kernel_regularizer": null, "filters": 96, "bias_initializer": {"class_name": "Zeros", "config": {}}, "use_bias": true, "activity_regularizer": null, "kernel_size": [1, 1]}, "inbound_nodes": [[["concatenate_6", 0, 0, {}]]], "name": "inception_5b_3x3_conv1"}, {"class_name": "BatchNormalization", "config": {"beta_constraint": null, "gamma_initializer": {"class_name": "Ones", "config": {}}, "moving_mean_initializer": {"class_name": "Zeros", "config": {}}, "name": "inception_5b_3x3_bn1", "epsilon": 1e-05, "trainable": true, "moving_variance_initializer": {"class_name": "Ones", "config": {}}, "beta_initializer": {"class_name": "Zeros", "config": {}}, "scale": true, "axis": 1, "gamma_constraint": null, "gamma_regularizer": null, "beta_regularizer": null, "momentum": 0.99, "center": true}, "inbound_nodes": [[["inception_5b_3x3_conv1", 0, 0, {}]]], "name": "inception_5b_3x3_bn1"}, {"class_name": "Activation", "config": {"activation": "relu", "trainable": true, "name": "activation_34"}, "inbound_nodes": [[["inception_5b_3x3_bn1", 0, 0, {}]]], "name": "activation_34"}, {"class_name": "MaxPooling2D", "config": {"name": "max_pooling2d_6", "trainable": true, "data_format": "channels_first", "pool_size": [3, 3], "padding": "valid", "strides": [2, 2]}, "inbound_nodes": [[["concatenate_6", 0, 0, {}]]], "name": "max_pooling2d_6"}, {"class_name": "ZeroPadding2D", "config": {"padding": [[1, 1], [1, 1]], "trainable": true, "name": "zero_padding2d_22", "data_format": "channels_first"}, "inbound_nodes": [[["activation_34", 0, 0, {}]]], "name": "zero_padding2d_22"}, {"class_name": "Conv2D", "config": {"kernel_constraint": null, "kernel_initializer": {"class_name": "VarianceScaling", "config": {"distribution": "uniform", "scale": 1.0, "seed": null, "mode": "fan_avg"}}, "name": "inception_5b_pool_conv", "bias_regularizer": null, "bias_constraint": null, "activation": "linear", "trainable": true, "data_format": "channels_first", "padding": "valid", "strides": [1, 1], "dilation_rate": [1, 1], "kernel_regularizer": null, "filters": 96, "bias_initializer": {"class_name": "Zeros", "config": {}}, "use_bias": true, "activity_regularizer": null, "kernel_size": [1, 1]}, "inbound_nodes": [[["max_pooling2d_6", 0, 0, {}]]], "name": "inception_5b_pool_conv"}, {"class_name": "Conv2D", "config": {"kernel_constraint": null, "kernel_initializer": {"class_name": "VarianceScaling", "config": {"distribution": "uniform", "scale": 1.0, "seed": null, "mode": "fan_avg"}}, "name": "inception_5b_3x3_conv2", "bias_regularizer": null, "bias_constraint": null, "activation": "linear", "trainable": true, "data_format": "channels_first", "padding": "valid", "strides": [1, 1], "dilation_rate": [1, 1], "kernel_regularizer": null, "filters": 384, "bias_initializer": {"class_name": "Zeros", "config": {}}, "use_bias": true, "activity_regularizer": null, "kernel_size": [3, 3]}, "inbound_nodes": [[["zero_padding2d_22", 0, 0, {}]]], "name": "inception_5b_3x3_conv2"}, {"class_name": "BatchNormalization", "config": {"beta_constraint": null, "gamma_initializer": {"class_name": "Ones", "config": {}}, "moving_mean_initializer": {"class_name": "Zeros", "config": {}}, "name": "inception_5b_pool_bn", "epsilon": 1e-05, "trainable": true, "moving_variance_initializer": {"class_name": "Ones", "config": {}}, "beta_initializer": {"class_name": "Zeros", "config": {}}, "scale": true, "axis": 1, "gamma_constraint": null, "gamma_regularizer": null, "beta_regularizer": null, "momentum": 0.99, "center": true}, "inbound_nodes": [[["inception_5b_pool_conv", 0, 0, {}]]], "name": "inception_5b_pool_bn"}, {"class_name": "Conv2D", "config": {"kernel_constraint": null, "kernel_initializer": {"class_name": "VarianceScaling", "config": {"distribution": "uniform", "scale": 1.0, "seed": null, "mode": "fan_avg"}}, "name": "inception_5b_1x1_conv", "bias_regularizer": null, "bias_constraint": null, "activation": "linear", "trainable": true, "data_format": "channels_first", "padding": "valid", "strides": [1, 1], "dilation_rate": [1, 1], "kernel_regularizer": null, "filters": 256, "bias_initializer": {"class_name": "Zeros", "config": {}}, "use_bias": true, "activity_regularizer": null, "kernel_size": [1, 1]}, "inbound_nodes": [[["concatenate_6", 0, 0, {}]]], "name": "inception_5b_1x1_conv"}, {"class_name": "BatchNormalization", "config": {"beta_constraint": null, "gamma_initializer": {"class_name": "Ones", "config": {}}, "moving_mean_initializer": {"class_name": "Zeros", "config": {}}, "name": "inception_5b_3x3_bn2", "epsilon": 1e-05, "trainable": true, "moving_variance_initializer": {"class_name": "Ones", "config": {}}, "beta_initializer": {"class_name": "Zeros", "config": {}}, "scale": true, "axis": 1, "gamma_constraint": null, "gamma_regularizer": null, "beta_regularizer": null, "momentum": 0.99, "center": true}, "inbound_nodes": [[["inception_5b_3x3_conv2", 0, 0, {}]]], "name": "inception_5b_3x3_bn2"}, {"class_name": "Activation", "config": {"activation": "relu", "trainable": true, "name": "activation_36"}, "inbound_nodes": [[["inception_5b_pool_bn", 0, 0, {}]]], "name": "activation_36"}, {"class_name": "BatchNormalization", "config": {"beta_constraint": null, "gamma_initializer": {"class_name": "Ones", "config": {}}, "moving_mean_initializer": {"class_name": "Zeros", "config": {}}, "name": "inception_5b_1x1_bn", "epsilon": 1e-05, "trainable": true, "moving_variance_initializer": {"class_name": "Ones", "config": {}}, "beta_initializer": {"class_name": "Zeros", "config": {}}, "scale": true, "axis": 1, "gamma_constraint": null, "gamma_regularizer": null, "beta_regularizer": null, "momentum": 0.99, "center": true}, "inbound_nodes": [[["inception_5b_1x1_conv", 0, 0, {}]]], "name": "inception_5b_1x1_bn"}, {"class_name": "Activation", "config": {"activation": "relu", "trainable": true, "name": "activation_35"}, "inbound_nodes": [[["inception_5b_3x3_bn2", 0, 0, {}]]], "name": "activation_35"}, {"class_name": "ZeroPadding2D", "config": {"padding": [[1, 1], [1, 1]], "trainable": true, "name": "zero_padding2d_23", "data_format": "channels_first"}, "inbound_nodes": [[["activation_36", 0, 0, {}]]], "name": "zero_padding2d_23"}, {"class_name": "Activation", "config": {"activation": "relu", "trainable": true, "name": "activation_37"}, "inbound_nodes": [[["inception_5b_1x1_bn", 0, 0, {}]]], "name": "activation_37"}, {"class_name": "Concatenate", "config": {"trainable": true, "name": "concatenate_7", "axis": 1}, "inbound_nodes": [[["activation_35", 0, 0, {}], ["zero_padding2d_23", 0, 0, {}], ["activation_37", 0, 0, {}]]], "name": "concatenate_7"}, {"class_name": "AveragePooling2D", "config": {"name": "average_pooling2d_4", "trainable": true, "data_format": "channels_first", "pool_size": [3, 3], "padding": "valid", "strides": [1, 1]}, "inbound_nodes": [[["concatenate_7", 0, 0, {}]]], "name": "average_pooling2d_4"}, {"class_name": "Flatten", "config": {"trainable": true, "name": "flatten_1", "data_format": "channels_first"}, "inbound_nodes": [[["average_pooling2d_4", 0, 0, {}]]], "name": "flatten_1"}, {"class_name": "Dense", "config": {"kernel_initializer": {"class_name": "VarianceScaling", "config": {"distribution": "uniform", "scale": 1.0, "seed": null, "mode": "fan_avg"}}, "name": "dense_layer", "kernel_constraint": null, "bias_regularizer": null, "bias_constraint": null, "activation": "linear", "trainable": true, "kernel_regularizer": null, "bias_initializer": {"class_name": "Zeros", "config": {}}, "units": 128, "use_bias": true, "activity_regularizer": null}, "inbound_nodes": [[["flatten_1", 0, 0, {}]]], "name": "dense_layer"}, {"class_name": "Lambda", "config": {"function": ["YwEAAAABAAAABAAAAFMAAABzEwAAAHQAAGoBAHwAAGQBAGQCAIMBAVMoAwAAAE50BAAAAGF4aXNp\nAQAAACgCAAAAdAEAAABLdAwAAABsMl9ub3JtYWxpemUoAQAAAHQBAAAAeCgAAAAAKAAAAABzEwAA\nAGluY2VwdGlvbl9ibG9ja3MucHl0CAAAADxsYW1iZGE+EgEAAHQAAAAA\n", null, null], "name": "lambda_1", "trainable": true, "function_type": "lambda", "arguments": {}, "output_shape": null, "output_shape_type": "raw"}, "inbound_nodes": [[["dense_layer", 0, 0, {}]]], "name": "lambda_1"}], "input_layers": [["input_1", 0, 0]], "output_layers": [["lambda_1", 0, 0]], "name": "FaceRecoModel"}, "backend": "tensorflow"}